weight/SimpleCNN_MLP_final.pt (torch, 433733 bytes, 10 tensors)

conv1.weight f4 [16, 1, 7]
000000 f6 ea be be d7 fb cb bd 7a 3f 6e 3e 3e 79 c4 be
       -0.37288636 -0.09960144 0.23266402 -0.3837375
000010 98 c8 31 bd ff cc 48 be e6 9c a2 be ff 2b 7f bd
       -0.04340419 -0.1960945 -0.3176033 -0.062297817
000020 02 3d c7 3d 4f 31 79 3e 41 1b 28 3e b2 55 05 3e
       0.09728433 0.24335216 0.16416647 0.13020971
000030 bd 4c 39 3e 3c c8 cf be 98 fc 4b 35 4d 1f d7 be
       0.1809568 -0.40582454 7.5990965e-07 -0.42016068
000040 d2 9f be 3d e7 f7 4a bd 5f 75 0f bd 92 b1 cc 3c
       0.09307827 -0.049552824 -0.035024043 0.024987016
000050 51 ff be 3d 3a 9e 80 be 9e 63 a3 be 02 b4 34 be
       0.093260415 -0.25120717 -0.3191194 -0.17646793
000060 4a ea d2 bc a5 4e ad be 0b e6 f2 bd 9a 49 88 be
       -0.025746483 -0.33849064 -0.118602835 -0.26618654
000070 91 0c b2 3e 80 bd 4c bb 9a 3a cb bd e2 71 1b 3e
       0.34775212 -0.003124088 -0.09923287 0.15180162
000080 67 af b3 3e a6 8f ac 3e ed be 3c be ae fd ed bd
       0.3509476 0.33703345 -0.18432207 -0.11620651
000090 55 1e 5e bd cb 25 a2 3e c0 ab 14 3e 37 fc 5f 3e
       -0.054228146 0.3166946 0.14518642 0.21873556
0000a0 67 26 a9 be e9 13 b4 bd 96 41 83 be d7 40 5e 3e
       -0.3303711 -0.0879286 -0.25635976 0.21704422
0000b0 6d fb 13 be 4b e7 83 bd 6e 0f 80 3d 59 fb 4d be
       -0.1445138 -0.064406 0.06252943 -0.20115413
0000c0 d3 01 2d 3e e5 68 96 3d db 55 ce bd 0d 6e 46 3e
       0.16895227 0.07344226 -0.100749694 0.19377919
0000d0 23 c2 0e be d4 67 2b 3e ca 70 4a be e5 51 8f 3e
       -0.13941245 0.16738826 -0.19769588 0.27992168
0000e0 0d b2 ab be ad 6c f9 bd 90 79 89 be 21 07 93 be
       -0.3353428 -0.121789314 -0.26850557 -0.28716376
0000f0 84 23 b5 be 0a e2 2a 3c a4 a8 80 bd 35 04 9a 3a
       -0.3537866 0.0104298685 -0.06282166 0.0011750521
000100 f8 eb 07 3d bb 8c ed 3d 65 e6 08 be 03 f7 17 be
       0.03318402 0.11599108 -0.13369139 -0.14840321
000110 7e ce 5d be e9 ab 98 3e e2 91 67 3e b9 bb d6 bc
       -0.21660802 0.29818657 0.22614244 -0.02621256
000120 bd ef b6 3e d6 e2 95 be c8 b3 d5 be 2d c2 ce be
       0.3572978 -0.29274625 -0.41738725 -0.4038252
000130 71 af 94 3c 7b f5 f8 bb 99 5e b5 be ff 0d 6d bc
       0.018150063 -0.007597623 -0.35423735 -0.014468669
000140 c0 a0 2f 3e 2e 84 16 be fc 0e 85 be 8d 9b 01 bd
       0.17151165 -0.1469886 -0.25987995 -0.031642485
000150 8a cc 94 be 99 3c 97 3e a0 63 87 3e 93 78 e4 ba
       -0.290623 0.2953842 0.26443195 -0.0017430953
000160 e6 a1 a0 be 95 f3 79 be 36 5f 6f 3e 4d 3d 0c be
       -0.3137352 -0.24409325 0.23376164 -0.1369526
000170 bc 0f c2 be 68 fd 71 be 21 e1 75 be 2d 67 97 3d
       -0.3790263 -0.23631823 -0.24011661 0.07392726
000180 9b 69 86 be 19 2f 50 be 86 dc 10 3e f0 00 74 3d
       -0.26252446 -0.20330466 0.14146623 0.059571207
000190 8a 02 01 be b3 dc 0d 3e b7 62 02 bd 99 18 a0 bd
       -0.12598625 0.13853721 -0.031832423 -0.07817192
0001a0 7a c5 77 bd 64 a6 97 3e 42 bc e2 3d b7 05 00 3d
       -0.060491063 0.29619133 0.110710636 0.03125545
0001b0 7a 17 5c 3e 10 c9 1c be f2 b9 75 3e f7 e7 30 3e
       0.2149333 -0.15311074 0.23996714 0.17275988

conv1.bias f4 [16]
000000 d9 17 df bd 91 ae a1 be fb ad 9a 3d d1 c9 fb be
       -0.108932205 -0.31578496 0.075527154 -0.4917741
000010 ec 1b 8e 3d 7c eb 96 bd af 06 76 3e a6 c5 c9 3d
       0.069389194 -0.07369134 0.24025987 0.098521516
000020 a1 83 a2 bc 67 1c ca be 05 be 4c be 8c 6a 55 bd
       -0.019838156 -0.39474794 -0.19994362 -0.052103564
000030 e3 a2 ae be bc 04 97 bd 58 1f ad be 3c c3 77 3e
       -0.34108648 -0.0737395 -0.33812976 0.2419557

conv2.weight f4 [32, 16, 5]
000000 fc 8e 2f bd 62 3c 5a bd 48 69 bc 3d 15 29 82 bd
       -0.04286097 -0.05328024 0.09199768 -0.06355492
000010 c5 bc 75 bd 2a ef 7b bb f8 5e 53 3d 0c ae 67 bd
       -0.059994478 -0.0038442113 0.05160424 -0.05656247
000020 cc 77 a0 bd ac 70 fc bc 70 72 bb bd eb 4a 09 be
       -0.078353494 -0.030815445 -0.091526866 -0.13407485
000030 f7 99 35 bd f3 2a 1f bd b4 f5 45 bd 6e 0b 21 bd
       -0.044336285 -0.03885932 -0.048330024 -0.03931754
000040 e4 c8 c2 bd 90 ad eb bc 91 d5 62 bd f8 3b 01 3c
       -0.09510973 -0.028769284 -0.055379454 0.007887833
000050 46 74 ee bd b5 1a cd bd b5 35 cc bd 73 9c 0f be
       -0.11643271 -0.100148596 -0.09971181 -0.14024524
000060 e3 39 28 3c 3a a8 01 be f3 8e 21 3b d8 60 17 bd
       0.0102677075 -0.1266183 0.0024651855 -0.03695759
000070 8e 57 8a bc 47 f4 ba bc d4 fd 2e be af aa d8 3b
       -0.016887452 -0.022821559 -0.17089015 0.006612144
000080 a1 d5 cc bd 40 b9 1a be cf d0 b9 bc 0b 6d 11 be
       -0.10001684 -0.1510973 -0.022682576 -0.14201753
000090 5d 08 60 bd a1 a7 6f 3c ad ca 79 bd fa 2f 08 be
       -0.054695476 0.014627368 -0.060984302 -0.13299552
0000a0 62 82 0e bd 86 89 f2 bc 0c 38 0b bd 5f b1 b6 bd
       -0.03479231 -0.029606592 -0.033988997 -0.089205496
0000b0 6f 74 f8 bd 29 e4 75 3d 01 07 c9 bd b6 30 d0 bd
       -0.12131583 0.060032044 -0.09815789 -0.10165541
0000c0 f0 6d d3 3c 40 09 11 3c 50 8e 2e bd de a6 6d bd
       0.025809258 0.008852303 -0.04261619 -0.058020465
0000d0 d1 fc 28 be 49 1c 28 be ba d2 8b bd 17 e1 42 3c
       -0.16502692 -0.1641704 -0.06827302 0.011894486
0000e0 9b 7f 22 be 04 f6 9f bd e3 dc 00 bc 29 52 ce bd
       -0.1586899 -0.07810596 -0.0078651635 -0.100742646
0000f0 74 c1 b2 bc ff a2 09 be 97 3f 17 be ff 0e b4 bb
       -0.021820761 -0.13441084 -0.14770351 -0.0054949517
000100 22 84 0e be e4 90 04 be 23 1e 0e bd 03 ca e6 bc
       -0.13917592 -0.12945896 -0.03469671 -0.028172499
000110 3c 08 d7 bd c8 02 91 bc c1 7e d1 3c a3 c8 ae 3c
       -0.104996175 -0.017701522 0.025573136 0.021335905
000120 9f de 0b be a1 1a f9 bd 50 ab cd bd 75 e4 40 3d
       -0.13659142 -0.12163282 -0.10042441 0.047092874
000130 a5 f1 a0 bd 34 9b db bc 2b 48 c7 3c 3e 7b 79 bd
       -0.0785859 -0.026807405 0.024326405 -0.06090855
000140 b8 44 bc 3d 03 9d 09 3e a3 bb ed 3d 62 46 84 bd
       0.091927946 0.13438801 0.116080545 -0.06458737
000150 76 76 09 3e 7f 48 4d 3d 23 2b 14 be 00 c8 ca bc
       0.13424096 0.050117966 -0.1446958 -0.02475357
000160 54 48 1c be 6a b1 82 3b d8 08 3c 3d 2f 00 48 3d
       -0.15261966 0.0039884346 0.04590687 0.0488283
000170 8f 19 3a bd 7e 94 a4 bd 97 a2 57 3c 4a f4 62 3e
       -0.04543453 -0.08036135 0.013161323 0.22163501
000180 34 96 68 3e 93 f8 44 3e 52 9f 9c 3d 74 6e a0 3d
       0.22713548 0.19235449 0.076475754 0.07833567
000190 76 26 11 bd 22 86 bf bd 25 d0 eb bb ce e4 4e 3d
       -0.03543707 -0.09351756 -0.0071964436 0.050511174
0001a0 6c a2 af bc aa 9e 8f bd 86 0f b2 bd ac 3b 99 3c
       -0.021439753 -0.07012685 -0.08694367 0.018705212
0001b0 ee 2e bf bd d1 13 cd bc e8 d9 09 be e2 a0 18 bd
       -0.09335123 -0.025033863 -0.13462031 -0.037262805
0001c0 42 0c 0f be c3 7a aa bd 12 13 fa 3b 0a 2c 05 3d
       -0.1396952 -0.08324196 0.007631668 0.032512702
0001d0 cc f7 2a bd db 4e 0f be ad 13 18 be 51 ae 74 3b
       -0.041740224 -0.13994925 -0.14851256 0.0037335346
0001e0 2b 57 d7 3d b8 d7 31 3e 62 61 9b bb 3e bd c6 3d
       0.10514673 0.17367446 -0.0047418335 0.09704064
0001f0 07 12 42 bc b2 8c 5e 3d 6b 4a 53 bd b6 24 02 be
       -0.011845118 0.054333396 -0.051584642 -0.12709317
000200 1e 06 a1 bd 86 be 1d bd 9b 9e c1 3c 7e 30 b4 3b
       -0.07862495 -0.038511775 0.0236352 0.005498945
000210 ff 02 6f bd 86 06 cc bd cb d6 5f bd b3 d8 d9 bc
       -0.058352467 -0.09962182 -0.054648202 -0.026592588
000220 75 c2 d4 bc 2c 52 f0 3d ef a6 cf 3d 1b 01 c6 3d
       -0.02597163 0.11734423 0.10139262 0.096681796
000230 1e 41 76 3d 31 37 b7 bd 9b 83 99 bc a1 40 b2 bd
       0.060120694 -0.08946074 -0.018739512 -0.08703733
000240 70 f8 82 bd 26 6d 21 3d 65 0b fb 3d 35 7c 1b 3e
       -0.06395042 0.039410733 0.12258033 0.151841
000250 16 03 cc 3d 60 2b fc 3c 11 77 66 bd b7 b5 a6 bc
       0.09961526 0.030782402 -0.056265894 -0.02035032
000260 80 5a a1 3d 0b cb 8f bd 05 54 ac bd 4d 88 d0 bd
       0.0787859 -0.07021149 -0.08414463 -0.10182247
000270 b3 cb aa bd 1e 20 0f be ba d2 25 bd 46 8a ec 3b
       -0.08339634 -0.13977095 -0.040484168 0.007218632
000280 c8 fe f7 3d 63 29 19 bc 11 5b 0c 3e 00 d3 0d 3c
       0.121091425 -0.009348246 0.13706614 0.008656263
000290 d6 57 2a 3e 57 9a 83 3d 0e fe d1 3d 2b d9 66 bd
       0.16635069 0.06425922 0.10253535 -0.05635945
0002a0 3c 85 1a be dd 4e 8f bd a3 e4 71 bd 02 79 83 3d
       -0.15089887 -0.06997464 -0.059055936 0.06419565
0002b0 b2 8f c4 ba 25 78 57 bc 1e 90 92 3d dd 98 32 3e
       -0.0014996438 -0.013151203 0.071563944 0.17441125
0002c0 c9 09 d6 3d 1f 7c 6d 3d ab 5c 4e 3e 6a 59 ce 3d
       0.10451085 0.0579797 0.20152538 0.10075648
0002d0 0f c5 0b 3c fe c5 6a bd 72 2c d1 bd 25 cf 36 be
       0.008530869 -0.057317726 -0.102135554 -0.17852457
0002e0 63 5b 99 bc 5c e1 c4 bd 7a 22 1a bc 37 e7 60 bd
       -0.018720334 -0.096132964 -0.009407634 -0.054908004
0002f0 c2 45 f4 bc f1 a6 18 be c4 09 73 bd e5 b3 c2 bd
       -0.02981842 -0.14907433 -0.059335485 -0.095069684
000300 8a b0 9e bd 3c 02 b8 bd b3 40 eb 3b af 03 c7 bd
       -0.07748516 -0.08984801 0.0071793436 -0.097174995
000310 54 fa 2e bd 3b 66 eb bd c2 93 c9 bd d0 c4 95 3b
       -0.0427192 -0.11494108 -0.09842636 0.004570581
000320 58 6b 8e 3d a7 5b 93 3d b1 ed 07 3e 6b f2 5e 3d
       0.06954068 0.07195216 0.13274266 0.054430407
000330 39 dc 02 3e 07 61 d7 3c d2 64 99 bd 28 0a 3a bd
       0.12779321 0.026291383 -0.07489933 -0.045419842
000340 57 df ce bd 92 29 bf bd 41 5b 39 3e eb 9d f3 3d
       -0.101011924 -0.09334101 0.18101217 0.11895355
000350 fe 1f 2c 3d ea 10 d2 3d 9c 7b 2c 3e 36 58 73 bd
       0.042022698 0.10257132 0.16844028 -0.059410296
000360 93 fa 66 bd 34 c8 72 3d 35 d4 9a 3c 47 94 8c 3d
       -0.05639131 0.05927296 0.018900016 0.06864219
000370 90 3c 04 3e 25 a4 fb bc 46 17 ba bd f1 a8 dc 3d
       0.12913728 -0.030717919 -0.0908647 0.107744105
000380 d9 76 c0 bc 30 08 3a 3d c4 5e c0 3d 0e b9 f7 3c
       -0.023494171 0.045417964 0.09393075 0.030239608
000390 2d 70 1c 3e bd 33 28 3e 48 ad 76 3c ba 51 db 3d
       0.15277167 0.16425987 0.015055962 0.107089475
0003a0 8b 92 4a 3c ad 1f 8a 3d 46 04 f2 bc b8 59 07 be
       0.01236404 0.06744323 -0.029543053 -0.13217819
0003b0 32 bb 0a 3c e2 a8 ae bd 93 49 9b bd a6 b3 c1 bc
       0.008467482 -0.085283056 -0.075823925 -0.023645233
0003c0 e8 d8 a5 3d c0 ae 82 3d ec 37 3e 3c 96 1d bf 3d
       0.08098012 0.06380987 0.0116100125 0.09331815
0003d0 00 25 0d bc 30 3d 4a 3c 48 ff f3 3c 78 1c 9e 3d
       -0.0086147785 0.01234369 0.029784814 0.07720274
0003e0 1a 87 a5 3d 50 10 bc 3b c8 1e f7 bc 50 f7 b4 bb
       0.08082409 0.0057392493 -0.030166045 -0.005522646
0003f0 d8 f2 21 be bd 4e 98 bd 5a 0c 0a 3d 8e 65 bb 3d
       -0.15815294 -0.07436893 0.033703186 0.091502294

conv2.bias f4 [32]
000000 49 b9 06 be f8 a8 d6 bd a6 00 d0 bd 5f 24 b0 bd
       -0.13156618 -0.10481447 -0.10156374 -0.08600687
000010 6b 1b 4b be fb ae 6f be 25 52 f8 bd 03 e1 7c 3d
       -0.19834678 -0.23406594 -0.12125043 0.061738025
000020 42 d1 1a be 22 5a a6 bd 60 a8 4f be cc c2 8f bd
       -0.15118888 -0.0812266 -0.20279074 -0.070195764
000030 ad 40 93 bd 3e 24 3e be 5d 40 61 3d 8b 30 22 be
       -0.0719007 -0.18568513 0.054993022 -0.1583883
000040 08 e3 05 be ed cb 0c be 32 14 f7 bd 50 a1 e8 bc
       -0.13074887 -0.13749667 -0.12064399 -0.028397232
000050 47 1e af bd 66 e1 20 bc 50 ab 6d 3d 0c f8 07 be
       -0.08550697 -0.009819364 0.058024704 -0.13278216
000060 be 80 59 be b0 2d 18 be b4 3d 03 be c6 02 c8 bd
       -0.21240517 -0.14861178 -0.12816507 -0.09766154
000070 31 6b 2c 3d 2b 02 2d be f2 66 5a be f8 f4 ef bd
       0.042094413 -0.16895358 -0.21328333 -0.11716646

fc1.weight f4 [64, 1600]
000000 c9 f1 96 3d 12 73 22 3d 54 fe aa 3d 23 cb 90 3d
       0.073703356 0.03966052 0.083492905 0.07069995
000010 6f 00 53 3d 5e 05 94 3d d9 d1 17 3d 9e 9f 46 3d
       0.051514085 0.07227586 0.03706536 0.048492067
000020 3c c3 88 bc ec cd 92 3d f1 ae 15 bd 0d 12 b3 3c
       -0.016694658 0.07168183 -0.03654379 0.021859193
000030 e8 29 af 3b ee ad 86 bc da a7 47 3c 92 92 93 bc
       0.005345572 -0.016440358 0.012186015 -0.018014226
000040 2e 46 71 3c 28 68 76 3b 32 58 b3 bc 2d 76 44 bc
       0.014726205 0.0037598703 -0.02189264 -0.011991066
000050 9a 45 73 bc 8e 9d 3e 3c db be c9 bc 40 2b 03 3b
       -0.014848137 0.011634244 -0.02462714 0.0020014793
000060 62 b5 18 3c d3 4b 89 3c 97 3b 35 bc e8 cb 0f 3b
       0.009320589 0.016759789 -0.011061571 0.0021941606
000070 cf 73 8e 3c 1d ec 9b 3c 38 97 cc bc 30 8a d9 3a
       0.017389206 0.019033486 -0.02497445 0.0016596969
000080 e0 d3 96 ba c5 e1 94 3c 9d 00 a6 bc 32 92 cb bc
       -0.0011507235 0.018174062 -0.020263964 -0.024849985
000090 72 e8 37 3c 64 07 86 bc b9 b0 87 3c 80 73 cb bb
       0.011224853 -0.016360946 0.01656376 -0.006208837
0000a0 77 35 ad bc dd ca 43 bc e0 7d 16 bc 4c 2f d8 3b
       -0.021143658 -0.011950222 -0.009185284 0.006597435
0000b0 16 fc 63 3c f4 90 a8 3c 00 cb 84 bc 09 16 c9 3c
       0.013915082 0.020576932 -0.01621008 0.02454664
0000c0 1d 26 3c bc 27 af 6a bc 3b 47 f4 3d e1 c8 96 3d
       -0.011483696 -0.014323986 0.11927649 0.07362533
0000d0 0d 9d 8a 3d d1 50 14 3d 43 a7 5c 3c 5e 2a b1 3b
       0.06768236 0.036209885 0.013467613 0.005406662
0000e0 a1 04 d9 3c cd dd b7 bc 69 00 a2 3c b0 80 d4 ba
       0.026491465 -0.02244463 0.019775586 -0.0016212668
0000f0 ad c0 60 bc 00 e0 d6 38 be 1f a3 3c cd 6a c2 3d
       -0.0137178125 0.000102460384 0.019912597 0.09493027
000100 68 1e db 3d 50 6a d9 3d dc 93 f6 3d 37 36 01 3e
       0.10699159 0.106159806 0.12039921 0.12618338
000110 32 08 ac 3d 3e 32 c2 3d 48 c6 fe 3d 41 dc d4 3d
       0.08400001 0.09482239 0.12440163 0.103935726
000120 55 7a d7 3d 78 06 e8 3d b8 19 bf 3d 90 1d 89 3d
       0.1052138 0.11329359 0.09331077 0.06695092
000130 78 58 2e 3d cf 23 81 3d f1 d0 78 3d c3 01 a5 39
       0.04256484 0.06305658 0.060746137 0.00031472565
000140 01 6c 39 3c 04 97 da bc ed 3e fc bc e4 66 d0 bc
       0.011317254 -0.026683338 -0.030791724 -0.025439687
000150 14 40 5f bd 17 88 3e bd a3 60 bc bc eb ae 32 bd
       -0.05450447 -0.046516504 -0.022995299 -0.043623846
000160 93 25 e9 bb 05 a3 eb bb 5a 5f 0a bd 4f e2 86 bc
       -0.007115075 -0.0071910643 -0.03378234 -0.016465334
000170 fa d2 1b bc 73 37 1d 3d 3f b1 16 3d 52 8c 81 3c
       -0.00951075 0.03838296 0.03679013 0.01581398
000180 b6 d6 e0 3c e0 ee 44 3d 2d 04 8f 3c a9 66 a1 3c
       0.027446132 0.04807937 0.017458046 0.019702272
000190 94 ad 51 3d db 6c cc 3d b1 5f e3 3d b6 6a 1d 3e
       0.051190928 0.099817 0.11102236 0.15372738
0001a0 f4 d4 87 bd 4d 2a 8d 3d 36 e9 47 3d 47 bf 36 bd
       -0.066324145 0.06892834 0.04880639 -0.04461601
0001b0 06 39 84 3d 2a 44 8e 3d 67 2e a2 3c e4 c2 8e 3d
       0.06456189 0.06946595 0.019797517 0.06970766
0001c0 60 ac b9 3d 10 54 d4 3d 37 b6 00 3e 6a 59 c0 3d
       0.09066081 0.10367596 0.1256951 0.093920544
0001d0 38 03 eb 3d 3c 0b b1 3d 23 bc 06 3e 27 4d ca 3d
       0.11475223 0.08644721 0.13157706 0.09877997
0001e0 b2 44 e4 3d db 17 c7 3d f1 7b ba 3d 0f ac f5 3d
       0.11145915 0.09721347 0.09105671 0.11995708
0001f0 94 84 be 3d 27 be b0 3d 62 99 84 3d 3e c3 b6 3c
       0.09302631 0.08630019 0.06474568 0.022309896
000200 26 80 81 3a 1a 82 af bc 22 18 92 bc 07 a0 d6 bc
       0.000988011 -0.021424342 -0.017833773 -0.026199354
000210 c9 62 16 3c e5 2b ac bb d4 1d 86 bc f2 de 8e bc
       0.009178826 -0.005254256 -0.016371645 -0.017440293
000220 0e a8 f9 bb 29 22 ae 3b 9a 58 cf 3b 62 08 7d 3c
       -0.0076189106 0.005314131 0.006327701 0.015443893
000230 42 95 14 3d 59 00 31 3d 1d ef 6b 3d 6d 1d 98 3d
       0.036275156 0.043213222 0.057601083 0.074274875
000240 fd 8c c3 3d 6b 70 be 3d 5a d3 fa 3d 85 1a 04 3e
       0.09548376 0.09298786 0.12247343 0.12900741
000250 62 bc ed 3d 27 e8 9f 3d af ea a2 3d 1b 14 95 bc
       0.11608197 0.078079514 0.079549186 -0.018198064
000260 c2 75 2c 3c a0 cf c1 3a a0 ee e2 bb d8 f2 83 bb
       0.0105261225 0.0014786609 -0.006925419 -0.004026752
000270 a9 0d 97 3c 80 7e 2d b9 1e 1e 8a bc 20 90 69 bc
       0.01843913 -0.0001654569 -0.016860064 -0.0142555535
000280 48 1c c1 3b 4e 6b 96 bc 36 64 7a 3c 80 45 c2 3b
       0.005893264 -0.018361714 0.015282681 0.005928695
000290 f8 29 c9 bc c2 e2 a1 bc 60 e8 a8 ba 66 b6 0f bc
       -0.024556145 -0.019761447 -0.0012886636 -0.0087715145
0002a0 85 1f 88 3c 28 f3 16 bb f2 3c 89 bc 25 1a bd bc
       0.016616592 -0.0023033116 -0.016752694 -0.023083756
0002b0 0f c9 b1 bc 55 50 86 3c a3 5e c2 3c ba 53 7a 3c
       -0.021702318 0.016395727 0.023726767 0.015278751
0002c0 c7 7d 1e bc e0 f8 c4 ba b0 76 1c bb 16 b1 74 3c
       -0.009673542 -0.0015027784 -0.0023874454 0.014934799
0002d0 20 67 0f bc 00 60 44 bb 74 1f c0 bb 15 f6 c8 3c
       -0.008752614 -0.0029964447 -0.0058631245 0.024531404
0002e0 d5 5d a5 3c 7d fe 8c 3c 0d d9 31 bc 8a 03 27 3c
       0.020186344 0.017211193 -0.010854972 0.010193715
0002f0 51 38 8a 3c c9 ff b1 3c 02 a5 35 3c 1c ed fe 3b
       0.016872557 0.021728413 0.011086704 0.0077797305
000300 f7 14 91 3c 96 61 74 3c 46 4f 0e bc 07 78 90 3c
       0.017710192 0.014915844 -0.008685892 0.017635358
000310 f5 61 b3 bc 20 4b 86 ba 73 8d a9 3c 43 5c 97 bc
       -0.021897295 -0.0010245778 0.020697331 -0.018476611
000320 79 e0 65 3d 2e ad 42 3d 1f 4a 84 3d 2c 57 92 3c
       0.056122277 0.04752844 0.0645945 0.017863832
000330 08 8a b2 3c 32 bd 3c ba a8 cb b8 bb 20 5d c6 3a
       0.021794334 -0.0007199823 -0.005639512 0.0015133955
000340 dd da d5 bc bf 3d bc bc 78 c9 a4 3b ab 99 5b 3d
       -0.026105339 -0.022978662 0.0050288998 0.053613346
000350 07 fc 00 3e 33 aa ce 3d 87 c1 8c 3d c6 96 eb 3d
       0.12596141 0.10091057 0.0687285 0.11503367
000360 c2 9b 94 3d ee 85 cf 3d ed d4 9f 3d b9 ed f4 3d
       0.07256271 0.10132967 0.07804284 0.119594045
000370 d4 9e df 3d 7c e6 a6 3d de 76 89 3d f5 da c8 3d
       0.10918966 0.0814943 0.06712125 0.09807388
000380 9b 78 82 3d b9 2f 71 3d 4a aa 2c 3d ab c3 41 3d
       0.0637066 0.058883402 0.042154588 0.047305744
000390 d7 2d ce 3c a6 6e a9 bc af 31 6e 3b f4 ec e7 bc
       0.025168343 -0.020682644 0.0036345532 -0.02831123
0003a0 82 5e 93 bc 91 97 0c bd b2 06 1c bd 74 08 23 bd
       -0.0179894 -0.034324232 -0.038092323 -0.039802983
0003b0 af e0 bf bc 4e df 09 bd 9f 1f 1f bd 55 54 8f bc
       -0.023422567 -0.033660226 -0.038848516 -0.017496267
0003c0 8c 6e 00 bd ab 86 8d bc 17 da b4 3c bc db 13 3d
       -0.031355426 -0.017276129 0.02207665 0.036098227
0003d0 d0 df 47 3c 4c 2c 65 3d 3c c7 2f 3d f1 ae be 3c
       0.012199357 0.055950448 0.042914614 0.023276778
0003e0 a3 85 62 3d 14 a4 34 3d ba ce 03 3e 29 3f c4 3d
       0.055303227 0.04410179 0.12871829 0.09582359
0003f0 a4 fd 8a 3d 9b a8 d3 3c 91 9a 32 3d 46 df 1d 3d
       0.06786659 0.025837233 0.043604437 0.03854301

fc1.bias f4 [64]
000000 92 7a 65 3d 88 43 30 3d 4a a7 1f bd 9f db 1c bd
       0.056025095 0.043033153 -0.0389779 -0.038295384
000010 38 d4 c4 bd fe 63 23 3d e6 32 0d 3d f0 4e 55 bd
       -0.0961079 0.03989028 0.03447237 -0.052077234
000020 a8 f1 25 bd 3f db df 3c 8b 7d 3d 3d 52 cb 3b 3d
       -0.040513664 0.027326224 0.046262305 0.0458482
000030 fa b2 68 b9 fa 13 42 bd cd aa 82 3d 7f a0 79 ba
       -0.00022191918 -0.047382332 0.06380234 -0.0009522512
000040 af 17 1b bc c6 7a 94 39 4b 60 8e bd 93 d5 b7 3d
       -0.009466096 0.00028320233 -0.0695196 0.08976283
000050 b3 db 66 bc 80 f4 83 bd 80 3e 7a bc d0 f3 47 bd
       -0.014090466 -0.06443119 -0.01527369 -0.048816502
000060 60 8c c5 bb 58 04 0d bd d9 e7 6c bd 92 47 4f bd
       -0.006028697 -0.03442797 -0.057838295 -0.050605364
000070 42 4c b7 3c 6d 44 11 3d 43 16 00 bd 23 da 42 3c
       0.02237523 0.035465647 -0.03127123 0.011892828
000080 f5 47 a5 3b 03 ee 47 3d 00 62 c5 b9 a5 82 d6 3b
       0.0050439783 0.04881097 -0.00037647784 0.0065463358
000090 08 ed 28 bd 92 37 63 3c b0 a9 35 3d 7f 65 19 bd
       -0.041241676 0.013868229 0.04435128 -0.03745031
0000a0 da ea aa bd 31 d3 98 bd f8 ca 10 3c 82 54 a6 3c
       -0.08345576 -0.074621566 0.008837454 0.020303968
0000b0 f2 2c b1 3c 08 7d 7c bd 69 1b b9 3c 11 70 13 bc
       0.021627877 -0.061642677 0.022596078 -0.008998887
0000c0 59 90 50 bd ce 8c 59 3d af 43 9e 3c 67 f5 62 bd
       -0.05091891 0.053112797 0.019319383 -0.055409815
0000d0 67 e2 63 3c 0f 45 ae 3d 28 91 79 3c bf f7 a6 bd
       0.013908959 0.08509266 0.015232362 -0.081527226
0000e0 24 e5 b3 3c 9a 1c 57 bd ca 7c 60 3c d9 05 91 3c
       0.021959849 -0.05251751 0.013701627 0.017702984
0000f0 c7 b3 42 bd 54 66 5e bd dd 01 9f bc 7a e2 0b 3c
       -0.04753473 -0.054296806 -0.019410068 0.008537883

fc2.weight f4 [32, 64]
000000 b7 e4 0c 3e 42 90 48 3e 08 2f 13 3e f9 95 03 3e
       0.13759123 0.1958628 0.1437341 0.12850179
000010 b5 45 e8 3d 8e 46 16 3c eb 07 8a bd f3 53 83 3c
       0.113414206 0.009172095 -0.067397915 0.016031241
000020 db 17 db 3b 22 7e 24 bd f2 0b 02 3d cd 45 2b 3e
       0.0066861934 -0.040159352 0.031749673 0.16725846
000030 58 a2 97 3c c8 d7 12 3e fb 03 91 bd 36 c3 1f 3e
       0.018510029 0.14340127 -0.07080837 0.15601811
000040 f0 06 fb bc b7 16 84 3d 5e b6 f1 bc 7f 2e 23 3e
       -0.030642956 0.06449645 -0.029505905 0.15935706
000050 98 cc d7 3d 55 ed 92 bd 66 a9 bf 3d b1 82 ae 3d
       0.1053707 -0.07174174 0.09358482 0.08521021
000060 bc fa 50 3d 2d 39 51 3d 2c 2f e5 3d a1 37 86 3d
       0.05102037 0.051079918 0.11190638 0.06553579
000070 90 01 0d 3e 65 c0 c9 3d 27 c6 c6 3b 4a 0d fc bc
       0.13770127 0.098511495 0.006066102 -0.030768055
000080 23 e3 6d bd 5c dc a2 3b b0 a0 97 3c d9 a9 0a 3e
       -0.058077943 0.0049701165 0.018509239 0.13541354
000090 cb 9d 06 3d 8e 9c d4 3d 69 b5 47 3c 5a b7 1c 3c
       0.032865327 0.10381423 0.012189248 0.009565199
0000a0 73 a4 41 bd 52 76 96 3c 00 45 14 3e 65 63 c8 bd
       -0.04727597 0.018366966 0.14479446 -0.09784583
0000b0 d6 ff f0 bd 3e 36 1b 3d 56 9d f5 bd 5c 18 d5 3d
       -0.11767547 0.037893526 -0.119929 0.10405037
0000c0 f8 ad 11 be e9 b6 6f 3d bc 52 fd bd c8 3c d8 3c
       -0.1422652 0.058524046 -0.12369296 0.02639617
0000d0 2e e6 47 bd e8 ae ae 3d 87 eb 11 3e eb 0b c3 3c
       -0.0488035 0.085294545 0.14250003 0.023809394
0000e0 93 f3 15 bd fd d5 33 be c4 9f 51 bd ee e6 a0 bd
       -0.036609244 -0.17562099 -0.051177755 -0.07856546
0000f0 e1 10 38 be 37 1d 5e bd ea 3a c6 bd e0 71 67 3c
       -0.17975189 -0.05422708 -0.09679206 0.014126271
000100 75 e0 ce bc de 45 31 bd 40 c5 7d 3b 70 76 0f 3c
       -0.025253514 -0.04327952 0.0038722306 0.008756265
000110 7e 15 ab bd d2 ed ac bd e8 f8 be 3d 0e a0 87 3d
       -0.08353709 -0.08443798 0.09324819 0.06622325
000120 e0 53 9e bd 89 4e dd bd 19 53 38 bc 87 a8 90 3d
       -0.07730842 -0.10805995 -0.011250281 0.07063394
000130 f1 8c e9 bd 18 0d 8a 3c f3 b1 d4 3b 76 2d 34 3e
       -0.114038356 0.016851947 0.0064909398 0.17595467
000140 96 7d 46 3c 26 63 04 3e ba ae 8f 3d ae 0f b3 bc
       0.012114903 0.12928447 0.07015748 -0.021858063
000150 8d 43 c3 3d d0 95 63 bc 40 cf dd bd 64 61 40 3d
       0.09534369 -0.013890699 -0.108305454 0.04696788
000160 e8 3b 50 3d 30 a8 f4 bc 90 ac 95 3c 67 fa 0a bd
       0.05083838 -0.029865354 0.01827076 -0.03393021
000170 11 5f 85 3c 4e 89 17 3e 93 84 82 3d 23 e1 2d 3e
       0.016280683 0.14798471 0.06372943 0.16980414
000180 64 c7 a4 3b 56 3b 05 3e 24 7d f6 bd 07 f1 2b 3e
       0.005028652 0.13010916 -0.120355874 0.16791163
000190 4c 31 26 bd 14 a1 8f 3d 9b 8f d8 3d 82 8b 30 bd
       -0.040574357 0.07013145 0.105742656 -0.043101795
0001a0 54 3d 69 bd 76 1c 98 bd 30 d9 21 bb 92 21 d0 bb
       -0.056943253 -0.074273035 -0.0024696104 -0.006351658
0001b0 47 35 c1 bb 12 d7 ef bd ff 5a 9d bd f9 8a 8b bd
       -0.0058962437 -0.11710943 -0.07683372 -0.06813616
0001c0 00 ac 65 39 e8 6f 2b 3e 94 89 14 3d 80 78 89 3c
       0.00021903217 0.16741908 0.036264017 0.016781092
0001d0 3c f8 28 3e 2a b0 39 bd fd 5f 27 3e d0 db 7e 3d
       0.16500944 -0.04533402 0.1634521 0.06222135
0001e0 15 57 aa 3d ec db 4c bd 10 fb c6 bd 94 5d 05 3d
       0.08317391 -0.05001442 -0.09715855 0.032559946
0001f0 68 b4 3c bd 38 28 2a be 72 52 cc 3d 10 0b 3c 3c
       -0.046070486 -0.16616905 0.09976663 0.011477247
000200 cc d3 bd 3d 78 b6 da bc 00 28 78 3b cc 7c 54 3d
       0.09268913 -0.026698336 0.0037865639 0.051876828
000210 28 a6 55 3d 80 9b 30 bc e0 17 7a bc 64 ea 93 3d
       0.052160412 -0.010779262 -0.015264481 0.07222441
000220 90 a5 17 bd 82 c7 8f 3d 8e 7c 95 bd 70 ca 6b 3d
       -0.037023127 0.07020475 -0.072991475 0.057566106
000230 f4 d7 11 bd 68 a4 cb 3d 9e 13 c1 bd 34 a5 e5 bd
       -0.03560634 0.099434674 -0.0942757 -0.112131506
000240 4c b5 7d bd f2 83 a9 bd 70 de e8 bd 80 0c 89 bd
       -0.061940476 -0.0827712 -0.113705516 -0.06691837
000250 48 b8 b4 bd 50 59 b8 bc 78 33 dd bc 86 4f 91 3d
       -0.08824211 -0.022503525 -0.027002081 0.07095246
000260 92 9a ac 3d ec a8 1d 3d 3c 20 a2 3d b6 fa 80 bd
       0.084279194 0.038491175 0.079163045 -0.06297819
000270 9c 44 9b bd 78 c6 df bc e2 2a c4 bd e0 55 94 bb
       -0.075814456 -0.027316317 -0.09578492 -0.0045268387
000280 b4 ab 69 3d 44 c6 f6 bd 64 94 87 3d bc 2c 37 bd
       0.057048514 -0.12049535 0.066201 -0.044720396
000290 20 fb e1 3c be 51 f1 3d 08 4c 82 3c 2e 91 bb bd
       0.027585566 0.11783169 0.015905395 -0.0915855
0002a0 74 31 71 bd a8 63 e6 3d 0e f8 8e bd 60 02 6b 3c
       -0.058885053 0.11249477 -0.069809064 0.014343828
0002b0 08 bb fe 3d 5c f8 d6 3d 30 ad 67 bc e6 2f a5 bd
       0.12438017 0.104965895 -0.014140412 -0.080657765
0002c0 e0 81 74 3c fc 7e 73 3d 52 3e 91 bd 78 18 fa bc
       0.014923543 0.059447274 -0.07091965 -0.030529246
0002d0 54 12 1e bd e4 7d e7 3d 7e f7 f6 bd 20 82 6f bd
       -0.038591698 0.113033086 -0.12058924 -0.058473706
0002e0 c4 fa fe bd f8 7c 70 bd 80 63 92 3c 00 ce 13 3a
       -0.124501735 -0.05871293 0.01786971 0.00056383014
0002f0 00 e5 9a bc d8 9e b8 bc d0 73 6f bc 24 b2 79 bd
       -0.018908024 -0.02253668 -0.014615014 -0.060960904
000300 e5 b2 08 3e 75 2f dd 3d 44 bf 07 3e 5a b1 a5 3a
       0.13349493 0.10800067 0.13256556 0.0012641356
000310 4b 46 03 3e 72 2f ce 3c 34 ba 2c 3c fc 56 b3 3d
       0.12819783 0.025169108 0.010542441 0.08756825
000320 dd 72 84 bd 11 e9 5a 3d f6 eb bc bc 6b 02 f9 3c
       -0.06467221 0.053444926 -0.023061734 0.03039666
000330 2f 84 2f bc 15 cf be 3d be 2b 0e be 3e f3 03 3b
       -0.010712667 0.093168415 -0.13883874 0.0020133997
000340 b1 3c e9 3c 24 a0 01 bd 51 35 23 3d 0d fc ee 3d
       0.028471323 -0.031646863 0.03984577 0.116691686
000350 0c e5 9e 3b cd 89 21 3d f8 b9 ed 3c 25 e8 83 3d
       0.004849082 0.039438058 0.02901934 0.064407624
000360 58 81 74 3d 14 3f 2f bd 31 cd 29 bc 2d 9a 41 3d
       0.059693664 -0.042784765 -0.010363863 0.047266174
000370 6f 7e 0b 3e 48 15 11 3d e7 76 e0 3b e6 12 90 3a
       0.1362245 0.035420686 0.0068501118 0.001099196
000380 ec 91 1f 3b 84 bc df 3d 92 4e a1 bd 5a 45 e8 3d
       0.002434845 0.109246284 -0.07876314 0.11341353
000390 27 15 9b 3d 70 d0 cf bd ac 09 0d 3e fd 47 19 3d
       0.07572394 -0.10147178 0.13773221 0.03742217
0003a0 30 e6 fd 3d b7 37 6d bd 08 25 4f bd 3f 41 67 bd
       0.123974204 -0.057914462 -0.050572425 -0.056458708
0003b0 19 9b 98 3c 6d 07 67 3d b7 62 27 3d 9a b2 8a 3c
       0.018628644 0.056403566 0.040865626 0.016930867
0003c0 81 15 9b bd a3 ac 81 3d b8 f8 f0 3c 98 ef 77 bd
       -0.07572461 0.06331756 0.029415473 -0.06053123
0003d0 ef b4 fc 3c 40 42 ba bd ac 03 1a 3e d1 80 6a 3d
       0.030847995 -0.090946674 0.15040463 0.057251755
0003e0 99 30 2f be 6b d8 74 bc b8 d2 32 bd aa 8e e9 3d
       -0.17108382 -0.014944176 -0.04365799 0.11404164
0003f0 57 ab 91 3b 53 34 8a 3d fc aa 85 bd e0 ae f9 3b
       0.004445474 0.06748261 -0.06526753 0.0076197237

fc2.bias f4 [32]
000000 c4 26 d7 3d 16 85 e5 bc 90 e0 3d bd 98 41 b6 3d
       0.10505441 -0.028017562 -0.046356738 0.0889923
000010 94 ad 28 be 70 d0 d0 3d 83 9a 30 3d d8 0f 39 3d
       -0.16472465 0.10196006 0.043116104 0.045181125
000020 7e 41 75 3d 9d a2 32 be 9f 63 86 bd f6 df 7d 3d
       0.05987691 -0.17444845 -0.0656197 0.061981164
000030 fe c8 08 be 73 09 c9 3c 8a 31 0f be 98 3e 21 be
       -0.13357922 0.024540639 -0.13983741 -0.15746534
000040 35 ff 26 be d9 ff b3 3d c8 73 88 3d 1e a2 d0 3c
       -0.16308291 0.087890334 0.066627085 0.025467928
000050 20 17 e9 bd 7f 8a 66 bc fb d9 e8 3d 96 d3 02 3e
       -0.11381364 -0.014071106 0.113697015 0.12776026
000060 09 09 89 3d 63 2e 19 bd 3c 82 3e be 14 58 ef 3d
       0.066911764 -0.037397753 -0.18604368 0.116867214
000070 ea 50 de bd f8 36 88 3d cb 58 4e bc 4f d2 06 be
       -0.10855277 0.066511095 -0.012594412 -0.13166164

fc3.weight f4 [2, 32]
000000 cd 8f 3c 3e 65 20 3e 3e 03 d7 02 be bc c8 0b 3e
       0.1841423 0.18567045 -0.12777333 0.13650793
000010 5e 6d 59 bd 7f 34 10 be 85 83 ae bd 4a fb 26 3e
       -0.053082816 -0.14082526 -0.08521179 0.16306797
000020 bb 85 58 3e 2b c7 8e 3d 33 66 98 3c 03 16 67 3e
       0.21144764 0.06971582 0.01860342 0.2256699
000030 a7 bc 32 bd 32 1d ee bd 4d 76 ee 3c a5 2e 36 3c
       -0.043636944 -0.11626662 0.029109145 0.011119519
000040 e0 aa 51 bd 98 78 92 bd 72 ce 2e 3e ff a3 04 be
       -0.05118835 -0.07151908 0.1707094 -0.12953185
000050 1a a1 b3 3d 36 e2 df 3c c0 07 81 3e fd 23 d5 3d
       0.08770962 0.027329545 0.25201225 0.10407255
000060 c6 6c 0d bd 20 44 be bd e9 5f a2 3c 23 b3 e4 bd
       -0.034527563 -0.092903376 0.019821124 -0.1116698
000070 b6 50 2f 3d 08 d8 81 bd b9 f9 5e 3e 29 c2 a3 bd
       0.04280158 -0.06340033 0.21774949 -0.079960175
000080 01 22 a9 bd 12 27 15 bd 56 eb 9d 3d 05 48 9d bd
       -0.08258439 -0.036414213 0.077109024 -0.07679752
000090 8b 38 60 3d 35 92 83 3e f5 8d 20 3e c7 3c 77 3d
       0.054741424 0.25697485 0.15679152 0.060360696
0000a0 b0 e1 c9 3d db e9 90 3c fe b5 80 3e b8 aa 8e 3c
       0.098574996 0.017689636 0.2513885 0.01741539
0000b0 07 a9 27 3e 2f 0c b4 3d b3 7e 57 bd dc d9 01 bd
       0.16373073 0.08791386 -0.052611064 -0.031701908
0000c0 ab 07 9c bd a4 24 5e bd 37 a1 23 be 6b ca a0 bd
       -0.0761865 -0.054234162 -0.15979467 -0.07851108
0000d0 e7 ce 12 bd 27 db 85 bd 7e 16 fe bd 3c af a3 bb
       -0.03584185 -0.065359406 -0.12406634 -0.004995255
0000e0 fc a9 63 3e da bb 8f bd bf 71 9a 3c 2c a0 eb 3d
       0.22232813 -0.07018252 0.018853066 0.1150516
0000f0 b5 45 7e 3e 21 ba 77 3d 1e 41 bb bd a5 19 a0 3c
       0.24831279 0.06048024 -0.091432795 0.019543478

fc3.bias f4 [2]
000000 08 44 62 3d 5f e8 21 3e
       0.05524066 0.15811299
